Day04/새 폴더/pong_model.tflite (tflite, 3868 bytes, 4 tensors)

arith.constant f4 [3, 64]
-3.9171422 0.4988105 1.5444326 0.095849305 1.6124926 -0.0941098 0.061530575 0.14701098
0.36021018 -1.1010498 0.3377326 0.7166532 -3.3383849 -1.2349397 -1.7245033 -0.11687282
1.6216056 1.378626 -0.08573541 2.1141899 0.56386983 -0.07507828 -0.05472605 -0.77370155
2.0054176 -0.042310804 -2.0436373 1.9111322 -9.758 -0.030774012 0.41977435 -0.029732421
0.5851939 0.010402039 -0.12270641 -2.0839741 0.057060704 -0.7616548 -0.089551225 -0.0011040585
-1.2286859 -2.4590487 1.4721903 -0.10202418 -1.2813803 0.32220098 0.08471784 -0.094918504
1.6315387 1.4985249 -1.184799 -0.042847335 1.2306848 -0.047262266 -1.206334 2.2491484
0.032644913 0.0622842 -2.4201856 1.2451901 2.8667688 -1.9249369 -4.3299966 -1.5228603
-3.9369142 0.2605228 1.5373372 0.05786635 1.717749 0.1002375 -0.0025413781 0.030550104
0.44830653 -1.1112465 0.32244357 0.6166204 -3.2907748 -1.3220129 -1.7514672 0.0732657
1.6024078 1.3617682 0.11216444 2.1262095 0.5628414 -0.24148099 -0.039566457 -0.78214437
2.146255 -0.06717603 -2.0511703 1.6852378 -9.993408 -0.106517605 0.46720424 -0.06943743
0.6663176 -0.11220585 -0.004848242 -2.1452851 -0.044410095 -0.7867892 -0.019806668 0.052015394
-1.2675121 -2.3318806 1.6868596 -0.32706228 -1.2937421 0.36007845 0.07081935 0.09512013
1.5950202 1.3250983 -1.1731725 -0.09040809 1.4577433 0.007368952 -1.0875493 2.353566
0.0048407614 -0.07698542 -2.604026 1.2686139 2.736508 -1.9264525 -4.857885 -1.8075873
-3.8894827 0.035096597 1.4370247 0.06618649 1.7887685 -0.06984541 0.10730398 -0.06420644
0.5493598 -1.1264483 0.3437097 0.4749363 -3.1792667 -1.3464936 -1.7590996 0.041677475
1.5213443 1.3563812 -0.078269295 2.0683408 0.5970886 -0.43773544 -0.105468675 -0.77557534
2.2994332 0.053686634 -2.0126524 1.6488768 -10.477128 -0.0012677591 0.49136397 -0.041869573
0.7041839 0.059887156 0.028391987 -2.151031 -0.080606654 -0.7921265 -0.06261094 0.12432705
-1.2297374 -2.1003506 1.8711225 -0.52049375 -1.3169345 0.38561767 -0.09861909 -0.06798786
1.535505 1.1894636 -1.1370202 -0.105284825 1.7383486 -0.09384467 -0.92006296 2.3490608
0.010052547 0.005452737 -2.8043365 1.2324817 2.4891808 -1.825105 -5.1855865 -1.89031
00000000: 75b2 7ac0 1764 ff3e f8af c53f a44c c43d
00000010: 2866 ce3f a4bc c0bd 7c07 7c3d 0c8a 163e
00000020: 786d b83e 33ef 8cbf 4aeb ac3e 9676 373f
00000030: 19a8 55c0 8112 9ebf 86bc dcbf 045b efbd
00000040: c690 cf3f d176 b03f 0c96 afbd e34e 0740
00000050: c659 103f a4c2 99bd 6c28 60bd 4e11 46bf
00000060: c358 0040 184e 2dbd f4ca 02c0 fb9f f43f
00000070: c520 1cc1 c819 fcbc aaec d63e 6891 f3bc
00000080: 44cf 153f 506d 2a3c 804d fbbd d55f 05c0
00000090: 7cb8 693d cffb 42bf a266 b7bd 0eb6 90ba
000000a0: 9445 9dbf 0e61 1dc0 bb70 bc3f 0ef2 d0bd
000000b0: 4504 a4bf 87f7 a43e 8c80 ad3d a264 c2bd
000000c0: 43d6 d03f aacf bf3f 7ea7 97bf b080 2fbd
000000d0: 1487 9d3f 1496 41bd 2769 9abf 0cf2 0f40
000000e0: acb6 053d b81d 7f3d 52e4 1ac0 6462 9f3f
000000f0: 2479 3740 5564 f6bf 558f 8ac0 16ed c2bf
00000100: 67f6 7bc0 3f63 853e 77c7 c43f 4405 6d3d
00000110: 33df db3f 5249 cd3d 408d 26bb 3644 fa3c
00000120: 6f88 e53e 533d 8ebf 5317 a53e d6da 1d3f
00000130: 0e9c 52c0 b837 a9bf 1430 e0bf 540c 963d
00000140: b31b cd3f 6c4e ae3f 78b6 e53d d113 0840
00000150: 6016 103f cb46 77be 7010 22bd 9d3a 48bf
00000160: 3e5c 0940 9693 89bd 6046 03c0 dfb5 d73f
00000170: 00e5 1fc1 e725 dabd 6535 ef3e 3635 8ebd
00000180: ca93 2a3f 2ecc e5bd 00de 9ebb 5a4c 09c0
00000190: 5ce7 35bd 046b 49bf 9841 a2bc 180e 553d
000001a0: d63d a2bf 883d 15c0 04eb d73f b574 a7be
000001b0: 5799 a5bf 345c b83e bc09 913d 58ce c23d
000001c0: 9f29 cc3f d29c a93f 842a 96bf e027 b9bd
000001d0: 5597 ba3f 4077 f13b d134 8bbf d3a0 1640
000001e0: 409f 9e3b 88aa 9dbd 5da8 26c0 f161 a23f
000001f0: f222 2f40 ff95 f6bf cb73 9bc0 055f e7bf
00000200: 49ed 78c0 73c1 0f3d 6df0 b73f c88c 873d
00000210: 5ef6 e43f 1c0b 8fbd 30c2 db3d aa7e 83bd
00000220: d8a2 0c3f 752f 90bf b8fa af3e da2a f33e
00000230: 1b79 4bc0 e759 acbf 2d2a e1bf 00b6 2a3d
00000240: 69bb c23f e69d ad3f a74b a0bd b25f 0440
00000250: ccda 183f dc1e e0be f6ff d7bd 1b8c 46bf
00000260: ea29 1340 84e6 5b3d 4ccf 00c0 650e d33f
00000270: 51a2 27c1 f02a a6ba 0f94 fb3e 6e7f 2bbd
00000280: 6545 343f 3c4c 753d 5096 e83c 7eaa 09c0
00000290: 1a15 a5bd cdc8 4abf 2a3a 80bd 2e9f fe3d
000002a0: 0968 9dbf 256c 06c0 f180 ef3f 143f 05bf
000002b0: 4f91 a8bf ae6f c53e cef8 c9bd 383d 8bbd
000002c0: 6e8b c43f 5840 983f e189 91bf 929f d7bd
000002d0: 3582 de3f a231 c0bd 3f89 6bbf 0357 1640
000002e0: 70b3 243c e0ac b23b 407a 33c0 f6c1 9d3f
000002f0: bd4e 1f40 0a9d e9bf 53f0 a5c0 aef5 f1bf

sequential_4_1/dense_10_1/BiasAdd/ReadVariableOp f4 [3]
0.5219877 0.55218923 0.5754113
00000000: fca0 053f 465c 0d3f 284e 133f

sequential_4_1/dense_9_1/BiasAdd/ReadVariableOp f4 [64]
-0.4455083 0.38549098 -0.62692994 -0.29767936 0.2906593 -0.2559529 -0.35016227 -0.26035184
-0.018448167 -0.41913256 0.03991625 0.08247794 -0.56300396 -0.406186 0.71096045 -0.4002552
-0.37228218 0.084627666 -0.39431712 -0.2691546 0.5978043 0.051610515 -0.10299039 0.23579669
0.068366565 -0.24726832 -0.4009299 -0.0871916 -0.9861971 -0.16563608 0.5311945 -0.19906522
-0.019872505 -0.39129674 -0.3753217 0.94586617 -0.35546324 0.05689806 -0.2855365 -0.16504648
-0.09662135 -0.05188624 0.06317206 -0.3653799 -0.11631309 0.47017473 -0.3896118 -0.30749938
0.6177268 0.0851371 0.5779567 -0.10298341 -0.4215927 -0.36425486 0.51509154 0.5409905
-0.37941143 -0.42988816 0.073059745 -0.43537155 -0.002300379 -0.11616143 -0.796494 -0.7804296
00000000: aa19 e4be 135f c53e 7b7e 20bf 6e69 98be
00000010: 4cd1 943e 420c 83be 7848 b3be d64c 85be
00000020: 9c20 97bc 8b98 d6be 397f 233d 32ea a83d
00000030: 0721 10bf 9df7 cfbe 8101 363f 40ee ccbe
00000040: c59b bebe 4551 ad3d efe3 c9be a2ce 89be
00000050: b409 193f 8c65 533d a0ec d2bd b074 713e
00000060: c503 8c3d e833 7dbe af46 cdbe 8291 b2bd
00000070: 6a77 7cbf 819c 29be 5dfc 073f c1d7 4bbe
00000080: aacb a2bc 0c58 c8be 2a2a c0be 4924 723f
00000090: 47ff b5be f10d 693d d731 92be f201 29be
000000a0: 6ae1 c5bd aa86 54bd 5a60 813d 1313 bbbe
000000b0: 8f35 eebd beba f03e 337b c7be 8f70 9dbe
000000c0: 5823 1e3f 5c5c ae3d f8f4 133f f7e8 d2bd
000000d0: 00db d7be 9d7f babe 0add 033f 5a7e 0a3f
000000e0: 3742 c2be 4d1a dcbe 59a0 953d 05e9 debe
000000f0: f5c1 16bb 0be6 edbd 08e7 4bbf 3cca 47bf

sequential_4_1/dense_9_1/MatMul f4 [64, 5]
1.1985351 0.3897469 -1.1532112 6.691146 1.4193969 -0.51487404 -0.23697917 0.08628885
-2.7880778 -4.4603057 -0.46991417 0.38001233 0.8510739 -0.7302016 4.3356075 -0.19978246
0.1895539 -0.07600102 0.29254338 0.24726608 -0.41583082 0.44092578 -1.13603 -4.797623
8.376843 -0.26280883 0.03370716 -0.44257677 -0.03343932 -0.037358236 -0.024115583 -0.2865684
-0.029384516 -0.12288473 -0.23051572 -0.09209074 0.26614672 -0.028418409 -0.28796992 0.4156815
0.35895726 -0.40785053 0.6396186 -0.36774725 -2.7894318 0.17473488 0.85575795 -0.74574924
1.8637332 4.0654993 0.21909611 -0.47873494 0.7392244 -0.27191412 -2.015552 0.3022087
0.1855062 -0.86006916 3.3031294 2.535733 0.2442714 0.83089685 -0.595021 2.5812025
8.802893 0.51917857 -0.3670181 0.8341349 5.1759624 -3.807237 -1.168806 -0.2371333
-1.024447 -1.760643 1.5030856 0.18763499 -0.2045228 0.34436283 -0.4414499 0.09531292
0.026153168 -0.17056996 1.1916941 -2.9939768 -1.1802319 -0.93420047 0.6036136 -0.32026345
-3.5451024 9.776993 -0.22477171 0.3672215 -0.20634034 0.14633305 0.31576443 -1.2569579
0.011290534 1.2129306 -8.147717 -6.88399 -0.42330796 -0.1263179 -0.64827764 -3.3971791
-0.25462434 -0.11185536 0.4594503 -0.7378909 -0.50396985 3.505536 -0.20725834 0.03133067
0.07329912 -0.13538633 -0.42693076 0.33454 0.21313287 -1.0224553 1.5513197 -2.0673976
-1.2351351 -0.25099853 1.3123533 -5.2709813 -10.069645 -0.3731538 0.17615852 0.015864642
0.35144565 -0.42187086 -0.9944229 0.3518241 1.0020162 -2.921679 1.9868906 -0.14440525
0.3245499 -0.7033303 -8.337408 1.028967 -0.5465402 0.9930991 0.5512543 0.3503801
1.8872144 -0.48345363 -0.21889699 0.15335198 0.25587878 0.021155799 -0.59876955 -0.161364
-0.32868233 -4.6150403 3.0002215 0.14175011 0.098421074 -0.29717094 0.13820885 -0.28198668
0.41644847 -0.5552368 0.5780535 -0.2145913 -4.3120418 0.13949147 -0.2409742 0.21262425
-0.002555938 0.44309598 0.050449427 -0.0685133 0.01766099 0.0986888 0.33655965 -0.02797769
-1.2379037 0.25851434 1.8086504 -17.349304 0.2137631 -0.42367086 -0.016553273 0.18775287
-0.36447287 -0.13156275 -0.49110463 0.91705203 0.5694686 -8.589917 -0.21117923 0.24317056
-0.3340492 0.3044313 -0.18720715 0.16124444 -0.4094722 -0.38712317 -0.043291554 -0.041767757
0.39585757 0.530435 -1.06035 -0.14095446 2.0691004 -1.0297257 0.054006275 0.9175016
-7.2670116 2.4999352 0.6423597 -0.32892117 -0.63872474 8.935243 -14.01007 -0.0395466
0.37064517 -0.012889727 -0.2856631 0.68361515 -0.21422406 -0.4238762 1.0942986 -4.213824
-5.8317585 -0.060955957 -0.044044353 -0.8074209 -2.8790975 -0.0002958309 0.2313291 -0.39247698
0.24956132 0.23443425 0.14774743 -0.1045415 -0.02594797 -0.0029700657 -0.22195615 0.29800302
-0.9052438 0.47528 -1.06323 -2.569346 6.526277 -0.64686966 -0.026025623 0.67626166
-4.333848 7.474615 -0.74614763 -0.008873959 -0.6557059 -7.38293 -1.6751527 0.08561456
00000000: 9969 993f e88c c73e 6d9c 93bf de1d d640
00000010: ccae b53f c9ce 03bf abaa 72be 35b8 b03d
00000020: de6f 32c0 d3ba 8ec0 9798 f0be fa90 c23e
00000030: fbdf 593f 7eee 3abf 4cbd 8a40 c693 4cbe
00000040: 6b1a 423e 6ca6 9bbd 3fc8 953e 5233 7d3e
00000050: c7e7 d4be 06c1 e13e 6e69 91bf 2186 99c0
00000060: 8d07 0641 e18e 86be 8510 0a3d 6c99 e2be
00000070: abf7 08bd f304 19bd 0b8e c5bc 18b9 92be
00000080: ccb7 f0bc fdaa fbbd 500c 6cbe 129a bcbd
00000090: 6244 883e b9cd e8bc cb70 93be 35d4 d43e
000000a0: 3fc9 b73e c9d1 d0be 0bbe 233f 5e49 bcbe
000000b0: 0d86 32c0 b3ed 323e f412 5b3f 6ce9 3ebf
000000c0: cf8e ee3f 9218 8240 bb5a 603e bf1c f5be
000000d0: cf3d 3d3f 5438 8bbe cefe 00c0 19bb 9a3e
000000e0: 56f5 3d3e 7e2d 5cbf 7966 5340 7349 2240
000000f0: 4822 7a3e a8b5 543f 4c53 18bf 6c32 2540
00000100: a6d8 0c41 e3e8 043f cce9 bbbe dd89 553f
00000110: 7ca1 a540 c5a9 73c0 6f9b 95bf 12d3 72be
00000120: 1421 83bf c05c e1bf 1c65 c03f 6323 403e
00000130: 6d6e 51be 5350 b03e b905 e2be 6c33 c33d
00000140: 2b3f d63c e4a9 2ebe 6f89 983f 519d 3fc0
00000150: d711 97bf c327 6fbf 6c86 1a3f 92f9 a3be
00000160: f5e2 62c0 906e 1c41 8e2a 66be 7504 bc3e
00000170: e24a 53be 55d8 153e e0ab a13e ffe3 a0bf
00000180: effb 383c 4f41 9b3f 0d5d 02c1 a549 dcc0
00000190: d2bb d8be 7b59 01be 86f5 25bf 626b 59c0
000001a0: 1f5e 82be 6c14 e5bd 123d eb3e 6be6 3cbf
000001b0: 2b04 01bf b45a 6040 883b 54be 9754 003d
000001c0: d91d 963d b7a2 0abe ab96 dabe d448 ab3e
000001d0: 813f 5a3e d1df 82bf a591 c63f 3e50 04c0
000001e0: e818 9ebf e182 80be 31fb a73f e1ab a8c0
000001f0: 441d 21c1 040e bfbe e662 343e 91f6 813c
00000200: aff0 b33e 75ff d7be 8092 7ebf 4a22 b43e
00000210: 1142 803f cafc 3ac0 6e52 fe3f f8de 13be
00000220: 682b a63e 740d 34bf 0666 05c1 31b5 833f
00000230: 0fea 0bbf be3b 7e3f 001f 0d3f 0565 b33e
00000240: 3e90 f13f 3c87 f7be 8826 60be 4d08 1d3e
00000250: 8b02 833e ed4e ad3c f648 19bf 9b3c 25be
00000260: 0d49 a8be 69ae 93c0 a103 4040 f126 113e
00000270: fd90 c93d ca26 98be 9f86 0d3e 8f60 90be
00000280: bc38 d53e 0024 0ebf 50fb 133f d2bd 5bbe
00000290: 3ffc 89c0 dad6 0e3e f1c1 76be 2cba 593e
000002a0: 8681 27bb 7add e23e 0fa4 4e3d b350 8cbd
000002b0: c8ad 903c 5b1d ca3d 8c51 ac3e 7831 e5bc
000002c0: a173 9ebf fe5b 843e db81 e73f 60cb 8ac1
000002d0: b7e4 5a3e 63eb d8be bb9a 87bc 4a42 403e
000002e0: 309c babe 63b8 06be 1172 fbbe ecc3 6a3f
000002f0: b2c8 113f 4d70 09c1 5e3f 58be b401 793e
00000300: 7f08 abbe 6bde 9b3e 3bb3 3fbe 431d 253e
00000310: 57a6 d1be 0235 c6be 7c52 31bd ab14 2bbd
00000320: d8ad ca3e 97ca 073f 8cb9 87bf 5e56 10be
00000330: 246c 0440 0dce 83bf af35 5d3d 63e1 6a3f
00000340: 5c8b e8c0 f0fe 1f40 af71 243f 5b68 a8be
00000350: 7783 23bf c1f6 0e41 3f29 60c1 9efb 21bd
00000360: 34c5 bd3e 6f2f 53bc 6f42 92be 6701 2f3f
00000370: 8d5d 5bbe 4d06 d9be fa11 8c3f a5d7 86c0
00000380: c49d bac0 f4ac 79bd da67 34bd 23b3 4ebf
00000390: 2243 38c0 c019 9bb9 89e1 6c3e bef2 c8be
000003a0: 018d 7f3e 880f 703e 1a4b 173e db19 d6bd
000003b0: d690 d4bc 6fa5 42bb 7948 63be da93 983e
000003c0: 0fbe 67bf e657 f33e ec17 88bf 2a70 24c0
000003d0: 43d7 d040 4099 25bf b033 d5bc 7c1f 2d3f
000003e0: e2ae 8ac0 0c30 ef40 8803 3fbf 1564 11bc
000003f0: 58dc 27bf f640 ecc0 676b d6bf b056 af3d
